results/model.pth (torch, 88680 bytes, 8 tensors)

conv1.weight f4 [10, 1, 5, 5]
0	0x3d1ccb7d	0.03828
1	0x3e03a85f	0.12857197
2	0xbe7658ab	-0.24057262
3	0x3d745f70	0.05966133
4	0xbd88690f	-0.06660663
5	0x3e3d9820	0.18515062
6	0x3d537a76	0.05163046
7	0xbde552ae	-0.111974105
8	0xbcf8c906	-0.030369293
9	0xbd1f0fe6	-0.03883352
10	0x3e189faf	0.14904664
11	0xbc9f8cd4	-0.019476332
12	0xbd501f1b	-0.050810914
13	0xbd6cd7c6	-0.057822965
14	0xba43927e	-0.00074604887
15	0x3ca724b9	0.020403253
16	0x3e754fa3	0.2395616
17	0x3e0bf42a	0.1366736
18	0xbc1ca87c	-0.009561654
19	0xbdf89d9d	-0.12139437
20	0xbd1b3759	-0.03789458
21	0xbcfc4107	-0.030792726
22	0x3d2da972	0.042397924
23	0x3de1f61f	0.11033272
24	0x3e104cb5	0.14091761
25	0x3da595a8	0.08085185
26	0xbe4d2fc4	-0.20037752
27	0x3e16942d	0.14704962
28	0x3e05f3c2	0.13081267
29	0x3e9ef967	0.31049654
30	0x3ded6c01	0.11592866
31	0xbe18d340	-0.14924335
32	0xbdce2af5	-0.10066787
33	0x3ce33e18	0.02773957
34	0x3ea4e112	0.32202965
35	0xbc84cdfd	-0.016211504
36	0x3e38b4ee	0.18037769
37	0x3d1c70a8	0.038193375
38	0x3e886f6d	0.2664751
39	0xbd85ee4b	-0.065395914
40	0x3e2f7da9	0.1713778
41	0x3d95b1b8	0.07309288
42	0xbd7684e4	-0.060185328
43	0x3d5e336c	0.05424826
44	0xbe306bfa	-0.1722869
45	0x3ca38784	0.01996208
46	0xbdd0e931	-0.10200728
47	0xbda91cff	-0.08257484
48	0xbe9443e0	-0.28958035
49	0xbe1b69ac	-0.1517703
50	0x3df83ecd	0.12121353
51	0x3e05f95e	0.13083407
52	0x3ec9c72e	0.39409775
53	0x3e68ac90	0.22722077
54	0xbd944d60	-0.072413206
55	0xbd2a4e6c	-0.041578695
56	0x3eba7db9	0.36424044
57	0x3e72e3ea	0.23719755
58	0xbe1ef383	-0.1552258
59	0xbc0c20af	-0.008552714
60	0x3e968a71	0.29402497
61	0x3ee3889b	0.4444016
62	0xba785ff3	-0.0009474747
63	0xbdbaed07	-0.09127241
64	0xbe1adbf4	-0.15122968
65	0x3e545499	0.20735396
66	0x3dc39ae4	0.095510274
67	0xbd905700	-0.07047844
68	0x3c91af0a	0.01778366
69	0xbe3b7181	-0.18305017
70	0x3e70529f	0.23469017
71	0x3e242f15	0.16033585
72	0x3da9d4bc	0.08292529
73	0xbd36b9d9	-0.044610832
74	0xbcd462cb	-0.025926014
75	0x3df03682	0.117291465
76	0xbdfd4938	-0.12367481
77	0x3e4062f8	0.18787754
78	0xbdee0c2e	-0.11623417
79	0xbe2d333c	-0.16914076
80	0x3d318c36	0.043346606
81	0x3cd0cc44	0.025488026
82	0x3e374d44	0.17900568
83	0xbe03f259	-0.12885417
84	0xbe5642fe	-0.20923993
85	0x3e4ce34c	0.20008582
86	0x3cfa032e	0.030519094
87	0x3e0661ad	0.13123198
88	0x3d1c6e5b	0.03819118
89	0xbe421d6b	-0.18956535
90	0x3df254af	0.11832558
91	0x3da3560b	0.07975396
92	0xbe0dc687	-0.13845263
93	0xbded1c14	-0.11577621
94	0x3cb8fc51	0.022581251
95	0x3ddc4ed0	0.1075722
96	0xbd3310c1	-0.04371715
97	0xbd068f04	-0.032851234
98	0x3e5c81bc	0.21533865
99	0xbcddcaa5	-0.027074168
100	0x3dc3d619	0.0956232
101	0x3dde511a	0.10855313
102	0xbdcd0953	-0.10011544
103	0xbe0702f4	-0.1318472
104	0x3e596437	0.21229635
105	0x3d34b20d	0.044115115
106	0x3ea5ad79	0.32358912
107	0x3eae1a08	0.34004235
108	0x3ebd0813	0.36920223
109	0x3ec6ad87	0.38804266
110	0x3e3bf6db	0.18355887
111	0x3caf3fdc	0.021392755
112	0x3e51c3a0	0.20484781
113	0x3e97bdc1	0.29636958
114	0x3e805b0c	0.25069463
115	0x387c8f0c	6.0214705e-05
116	0xbe447eb3	-0.19188957
117	0xbe7b0209	-0.24512495
118	0xbe993d9a	-0.2992981
119	0xbe01d2bd	-0.12678047
120	0xbc56d362	-0.013111921
121	0xbe8b8fb8	-0.27258086
122	0xbe0cffc2	-0.13769439
123	0xbec956b2	-0.39323956
124	0xbecaf5a7	-0.39640543
125	0xbd0bf999	-0.03417358
126	0x3e4363fc	0.1908111
127	0x3e857e42	0.2607289
128	0xbdcf9544	-0.10135892
129	0xbba8abf6	-0.0051474525
130	0x3e52835a	0.20557919
131	0x3e71ef36	0.23626408
132	0x3e6804b1	0.2265804
133	0x3e3921b1	0.18079259
134	0x3de44f18	0.111478984
135	0x3d2841a2	0.041078217
136	0xbd971f0e	-0.0737897
137	0xbe16068c	-0.14650935
138	0xbdb6a57a	-0.08918281
139	0xbd542585	-0.051793594
140	0xbe248901	-0.16067888
141	0x3e0a2099	0.13488998
142	0x3dea1e4a	0.114315584
143	0x3c9008a5	0.017582247
144	0x3ddb166a	0.106976345
145	0x3d5adf51	0.053435627
146	0x3e55397d	0.20822711
147	0x3e8553cb	0.2604049
148	0x3d4c779d	0.04991876
149	0x3e988634	0.2978989
150	0xbd1921e8	-0.03738585
151	0xbdb62aaf	-0.0889486
152	0xbe94e9ae	-0.29084533
153	0xbe87131f	-0.26381776
154	0xbe5996d3	-0.21248941
155	0xbddfb62a	-0.10923417
156	0x3d22bc05	0.03973009
157	0xbe3eaf0b	-0.18621461
158	0xbe8d278c	-0.27569234
159	0x3bf760c1	0.0075493758
160	0x3d4c4fe0	0.049880862
161	0x3d395ff7	0.045257535
162	0xbe3878c4	-0.18014818
163	0x3a4b7e77	0.000776268
164	0xbd117d76	-0.03552004
165	0xbd43973f	-0.04775166
166	0xbe26d3ca	-0.16291729
167	0xbd2a70e7	-0.04161158
168	0x3d940dfc	0.0722923
169	0x3e90242e	0.28152603
170	0x3de873b2	0.11350192
171	0x3e43c3a3	0.19117598
172	0x3eccac39	0.39975145
173	0x3ed8d37f	0.4234886
174	0x3ea0dcdc	0.31418502
175	0xbab9eae7	-0.0014184386
176	0xbe0fee82	-0.14055827
177	0x3e2ee8f2	0.17081049
178	0xbd1b9761	-0.037986163
179	0xbc2a60c5	-0.010399048
180	0xbe50f3a0	-0.20405436
181	0xbdb1b313	-0.08676734
182	0xbe25fe32	-0.16210249
183	0x3e206834	0.1566475
184	0xbe3f26cf	-0.18667148
185	0xbe29ad52	-0.16570023
186	0xbd23eef7	-0.040022817
187	0xbe1270b1	-0.14300801
188	0x3d25a1eb	0.04043762
189	0xbdc42da3	-0.09579017
190	0xbc69e93c	-0.014276799
191	0x3d765fe6	0.06015005
192	0x3e2c5621	0.1682973
193	0xbe0b7a39	-0.13620843
194	0x3dbbfb43	0.09178784
195	0x3e8902be	0.26759905
196	0x3e984bd5	0.29745355
197	0xbdc1b9d9	-0.09459276
198	0x3d78703d	0.060653914
199	0xbe1436d4	-0.1447404
200	0x3e6568e8	0.224033
201	0x3da37f72	0.07983293
202	0x3e6fc5b3	0.2341526
203	0x3cd96551	0.02653757
204	0xbe290890	-0.16507173
205	0xbcb498b7	-0.022045476
206	0x3e2418e5	0.16025122
207	0x3e94e244	0.29078877
208	0x3e77d26a	0.2420136
209	0x3d998fbc	0.07498118
210	0xbe91a0b3	-0.28442916
211	0x3e1aac42	0.15104774
212	0x3eab6bcb	0.33480677
213	0x3eec5cf6	0.46164674
214	0x3e9dced4	0.3082186
215	0xbe7d25d4	-0.24721462
216	0xbe102870	-0.14077926
217	0x3e44aa56	0.19205603
218	0x3ce61633	0.028086757
219	0x3ed8a2d4	0.42311728
220	0xbe992e2b	-0.29918036
221	0xbe9fbef7	-0.31200382
222	0xbd1d50ed	-0.038407255
223	0xbddfd724	-0.10929707
224	0x3dde2f22	0.108488336
225	0x3e9d1284	0.3067819
226	0x3ec2f212	0.3807531
227	0x3e7192d9	0.23591174
228	0xbe3dcb83	-0.18534665
229	0xbeab22fa	-0.33425122
230	0x3ee34bbd	0.4439372
231	0x3e3172a5	0.1732889
232	0xbe0453c1	-0.12922575
233	0xbe07a202	-0.13245395
234	0xbe9a4c54	-0.3013636
235	0x3eb6448a	0.35599166
236	0x3e90d980	0.2829094
237	0xbe607e14	-0.21923095
238	0xbe951030	-0.29113913
239	0xbe09e4f2	-0.13466242
240	0x3e60d0eb	0.21954696
241	0x3db0f32e	0.08640133
242	0xbe22f2fc	-0.15913004
243	0xbdb9ea1b	-0.09077855
244	0xbe880a5a	-0.26570398
245	0xbbdcebfc	-0.0067419987
246	0xbd5566b3	-0.052099895
247	0x3e1292c5	0.143138
248	0x3e1eff6c	0.15527123
249	0xbdb98b7c	-0.09059808

conv1.bias f4 [10]
0	0x3c47b9ae	0.012190266
1	0x3e01ba38	0.12668693
2	0x3c4f9e9f	0.012672096
3	0xbd89cb5a	-0.06728239
4	0x3e47ca0d	0.1951067
5	0x3e11e018	0.14245641
6	0x3d726f16	0.05918797
7	0xbb6cdf91	-0.0036143998
8	0x3e9519e8	0.29121327
9	0x3e4770b6	0.1947659

conv2.weight f4 [20, 10, 5, 5]
0	0xbd3a67c3	-0.04550911
1	0x3d6d2d99	0.057904813
2	0x3c05c3e7	0.008164383
3	0xbd1ba078	-0.03799483
4	0x3d4c69a5	0.049905438
5	0xbd0e4b2f	-0.03473967
6	0x3da7d8be	0.08195637
7	0xbcb28963	-0.021794027
8	0x3cf358a2	0.02970535
9	0x3cc4b32a	0.024011213
10	0x3cd04cff	0.02542734
11	0x3d69fcde	0.05712592
12	0x3c35653b	0.0110714985
13	0xbba86075	-0.0051384517
14	0xbd4769f4	-0.04868503
15	0x3c7a9c7b	0.015296097
16	0xbc840430	-0.016115278
17	0x3cc45d9f	0.023970423
18	0x3c97d257	0.018532915
19	0x3d1d430e	0.038394026
20	0x3d50aa9e	0.050943963
21	0x3c8aae21	0.016928734
22	0xbd0cca2f	-0.034372505
23	0xbd3459c3	-0.044030916
24	0xbd739eea	-0.059477724
25	0x3c132110	0.008980051
26	0xbd3f7856	-0.04674562
27	0x3cdd4b37	0.027013404
28	0x3cb4f9c4	0.022091754
29	0xbb14821c	-0.002266056
30	0xbc2d598f	-0.010580434
31	0x3c2b841c	0.010468509
32	0x3ccaaa6f	0.024739472
33	0x3c1c2e3a	0.009532506
34	0xbbd19d1b	-0.0063969023
35	0xbcdf25e0	-0.02723974
36	0xbd72881b	-0.05921183
37	0xbc9a0c7a	-0.018804777
38	0x3cb23fca	0.021758933
39	0xbc79faa4	-0.015257511
40	0x3d4fedbb	0.050763827
41	0x3d1ce13e	0.038300745
42	0x3d54c125	0.05194201
43	0x3d0328ea	0.03202144
44	0xbd23b2eb	-0.03996555
45	0x3d7df93c	0.062005267
46	0x3d6ae6db	0.057349067
47	0x3dba8210	0.09106839
48	0xbbd48499	-0.0064855334
49	0xbce6ea33	-0.028187847
50	0xbda30b5e	-0.079611525
51	0xbd6f5751	-0.05843288
52	0xbc7c534b	-0.015400718
53	0xbd1c3849	-0.038139615
54	0xbcb6d581	-0.022318603
55	0x3d7c5cf7	0.061612096
56	0x3cce7706	0.02520324
57	0x3d4b16c7	0.04958227
58	0xbb85454e	-0.0040670997
59	0x3beca11a	0.0072213532
60	0x3ce767e1	0.028247776
61	0xbd18de43	-0.03732134
62	0xbb42fc7f	-0.002975255
63	0xbdbf6170	-0.093447566
64	0xbe0ce150	-0.13757825
65	0xbc0d5e88	-0.008628495
66	0xbd9964d2	-0.07489933
67	0xbd07bb61	-0.033137683
68	0x3cb18b07	0.021672739
69	0xbc0f7df0	-0.008758053
70	0xbb971df8	-0.004611727
71	0xbd9da33c	-0.0769715
72	0xbd3cd73b	-0.046103697
73	0xbd6c9a34	-0.057764247
74	0xbd957374	-0.072974116
75	0xbd17eec7	-0.03709295
76	0x3bcead56	0.0063072843
77	0x3a2fae21	0.00067016674
78	0xbc9fe889	-0.019520061
79	0xbd1b5c36	-0.037929736
80	0xbd03295e	-0.032021873
81	0x3d9108ef	0.07081782
82	0xbc974aad	-0.018468225
83	0xbd02b5a2	-0.0319115
84	0xbd4f77a9	-0.050651226
85	0xbc8a83a3	-0.016908472
86	0xbcda8bd1	-0.026677998
87	0xbc4f7d4e	-0.012664152
88	0x3d382e40	0.044965982
89	0x3c597f6d	0.01327501
90	0xbba71d2e	-0.005099914
91	0xbc9f16e1	-0.01942009
92	0x3d1a54d8	0.03767857
93	0x3d527656	0.051382385
94	0x3d40fa33	0.04711361
95	0x3b976396	0.004620026
96	0x3bb4927e	0.0055106273
97	0xbd1c9892	-0.03823144
98	0xbd865f94	-0.06561199
99	0xbdbf287c	-0.09333894
100	0xbbdb7ade	-0.0066979965
101	0xbd5197eb	-0.05117027
102	0x3d265e43	0.04061724
103	0x3dbbdff7	0.09173577
104	0x3d1da05b	0.038483005
105	0xbd74aae9	-0.059733305
106	0xbcdc32b3	-0.026879644
107	0x3b8a6dcb	0.004224514
108	0xbc692516	-0.014230033
109	0x3d8840a3	0.066529535
110	0xbc696d80	-0.014247298
111	0xbc594f63	-0.013263556
112	0x3d84d5e6	0.064861104
113	0x3d45bf89	0.048278365
114	0xbcfe4e69	-0.031043248
115	0x3d3f3be2	0.046687968
116	0x3e031bcb	0.12803571
117	0x3e43dfab	0.19128291
118	0x3dd8a51e	0.105783686
119	0x3aa3d614	0.0012499713
120	0x3d521006	0.051284812
121	0x3cddf2a3	0.027093237
122	0x3d57a52e	0.052647762
123	0x3dc2e63d	0.09516571
124	0x3c414aac	0.011797588
125	0x3c129546	0.008946722
126	0xbd2babd1	-0.041911904
127	0xbd2054f3	-0.039143514
128	0xbca90209	-0.020630853
129	0x3c484bcf	0.012225105
130	0x3cc48af7	0.023992045
131	0x3c0aaff1	0.008464799
132	0x3dffba55	0.12486712
133	0x3d169b32	0.0367691
134	0x3d9727ea	0.0738066
135	0x3d8c7b4b	0.06859454
136	0x3dfd8e45	0.123806514
137	0x3de964b4	0.11396161
138	0xbcd39e82	-0.025832418
139	0x3c6a5f5e	0.014304964
140	0x3a8ef48c	0.0010906621
141	0x3b72274b	0.003694969
142	0x3d876930	0.0661186
143	0x3bda4533	0.006661081
144	0xbc1f8540	-0.009736359
145	0xbd96eac8	-0.07369
146	0x3b950a20	0.004548326
147	0xbd279719	-0.040915582
148	0xbce9580c	-0.028484367
149	0x3be715c6	0.007052156
150	0x3c35e8a0	0.011102825
151	0xbd112518	-0.035435766
152	0x3ce389a5	0.027775595
153	0x3cdd9a54	0.027051128
154	0xbd904ee8	-0.070463
155	0x3c2039d7	0.009779415
156	0xbd69339f	-0.056933995
157	0xbcc0cb7a	-0.023534525
158	0xbda2728b	-0.079320036
159	0x3c1fa2b9	0.009743386
160	0xbd8cd7c4	-0.068770915
161	0x3d083a27	0.033258583
162	0x3d931037	0.07180827
163	0x3de48b09	0.11159331
164	0x3cdb9966	0.026806545
165	0xbdf07c7d	-0.11742494
166	0xbd254c43	-0.040355932
167	0xbb5df317	-0.0033866817
168	0x3d45b17d	0.04826497
169	0x3c3f2332	0.011666106
170	0xbd301048	-0.042984277
171	0xbd1e9b61	-0.0387224
172	0xbd5b79d9	-0.053583
173	0xbdcf6f0a	-0.10128601
174	0xbc374c4d	-0.011187625
175	0x3ceb9cbb	0.028761258
176	0x3d0df147	0.034653928
177	0x3d1748d5	0.036934692
178	0xbd3e531a	-0.04646597
179	0x3d760036	0.060058795
180	0xbd7ab010	-0.061203063
181	0x3ce6e400	0.02818489
182	0x3a4c12ef	0.0007784804
183	0x3d624c91	0.0552488
184	0xbbb21b05	-0.00543535
185	0x3cce9ebe	0.025222179
186	0xbd7c5ef6	-0.061614
187	0xbd7975cf	-0.060903367
188	0x3d80a593	0.06281581
189	0x3dae29dd	0.085040785
190	0x3d2adf0f	0.04171663
191	0xbc8a465d	-0.016879255
192	0x3d80922b	0.06277879
193	0x3d10cea2	0.03535331
194	0xbc67a84e	-0.014139248
195	0xbd84d886	-0.06486611
196	0x3d0106de	0.03150069
197	0xbccc7ac3	-0.024960881
198	0x3cc438ad	0.023952806
199	0xbd7133e1	-0.058887366
200	0xbbc40c8b	-0.0059829406
201	0xbcef1f47	-0.029189719
202	0xbcf7be4e	-0.030242112
203	0x3d966435	0.07343332
204	0x3cbe6a84	0.02324415
205	0xbc5749eb	-0.013140182
206	0x3c033cad	0.008010072
207	0xbdc635e3	-0.09678247
208	0xbd865777	-0.06559651
209	0xbd23c631	-0.039983932
210	0x3ddf0d95	0.108912624
211	0x3e2299e7	0.15879022
212	0x3de66912	0.11250509
213	0x3c085f3f	0.00832349
214	0xbdfd58cc	-0.12370452
215	0x3d65c161	0.056092624
216	0x3e18f47c	0.14937013
217	0x3e0de3f1	0.13856484
218	0x3de9f698	0.11423987
219	0xbd524033	-0.051330756
220	0x3c9dbe3a	0.019255746
221	0xbc21dc89	-0.00987924
222	0x3d7a7de5	0.06115522
223	0xbc2215b7	-0.009892873
224	0xbda5524a	-0.08072336
225	0x3d4bf792	0.04979665
226	0xbaa3d008	-0.0012497911
227	0xbbe2bbb3	-0.006919348
228	0x3b6b1d8f	0.0035875773
229	0xbccd6f30	-0.025077432
230	0x3d85fe7b	0.06542679
231	0xbcf94cb8	-0.03043209
232	0x3cabd38b	0.020974895
233	0x3c071a2f	0.008245989
234	0x3c830a3f	0.015996097
235	0x3cba478f	0.0227392
236	0xbd25c1c7	-0.040468004
237	0x3c648381	0.013947369
238	0xbdf6a0b8	-0.120423734
239	0xbdf900dc	-0.12158367
240	0xbd9cca47	-0.07655769
241	0xbdb6056d	-0.08887754
242	0xbd9c99ad	-0.07646499
243	0xbd1ff2a9	-0.039049778
244	0xbd027a79	-0.03185508
245	0xbdf17ab6	-0.117909834
246	0xbd08afff	-0.033370968
247	0xbdbb7404	-0.091529876
248	0xbd89b051	-0.06723083
249	0x3b05c464	0.0020411247
250	0xbd331af7	-0.043726888
251	0x3d384bb0	0.044994056
252	0x3cc3d7ec	0.02390667
253	0xbd91ec85	-0.07125191
254	0xbd5e351f	-0.05424988
255	0xbd15d80a	-0.036582984

conv2.bias f4 [20]
0	0x3d436f25	0.047713418
1	0x3b59badb	0.0033222947
2	0x3c4eca77	0.012621514
3	0xbd81978d	-0.06327734
4	0xbba3a94e	-0.004994548
5	0xbd110af1	-0.035410825
6	0xbd9ac31a	-0.07556744
7	0x3c611c36	0.013739636
8	0x3d17c727	0.03705516
9	0xbd1c310b	-0.03813271
10	0xbd215f24	-0.039397374
11	0x3d82015b	0.06347915
12	0xbc9c832e	-0.01910552
13	0xbd41d6fb	-0.047324162
14	0xbd1d30ce	-0.038376622
15	0xbd10619a	-0.03524933
16	0xbd83d353	-0.06436791
17	0xbd188d60	-0.0372442
18	0xbd8e510c	-0.06949052
19	0xbc8dde73	-0.017317986

fc1.weight f4 [50, 320]
0	0x3d8e2736	0.06941073
1	0xbc4e7b87	-0.012602693
2	0x3a558207	0.0008144681
3	0xbd82ca86	-0.063862845
4	0x3bf02e4f	0.007329739
5	0xbc1d84b0	-0.009614155
6	0xbcb4da86	-0.022076856
7	0x3d8fd19e	0.07022403
8	0x3cc93e5b	0.024565866
9	0x3cc690ed	0.024239028
10	0x3d597106	0.053086303
11	0xbb8384ca	-0.0040136324
12	0xbd279de2	-0.040922053
13	0xbd6f2e1b	-0.05839358
14	0xbd2ae840	-0.041725397
15	0xbd07cfdd	-0.03315722
16	0x3c44afa8	0.01200477
17	0xbc0741f6	-0.008255472
18	0x3c68c251	0.014206485
19	0xbdc47833	-0.09593239
20	0xbbaef53d	-0.0053392933
21	0x3c0ce2a5	0.008598958
22	0x3d95659d	0.07294772
23	0xbd4038b1	-0.046929065
24	0x3d8d4be2	0.06899239
25	0x3c5d42bc	0.01350468
26	0x3c2e15fa	0.010625357
27	0xbd3da1f3	-0.046297025
28	0xbd611445	-0.05495097
29	0xbc428f92	-0.01187505
30	0xbcf3cb5a	-0.029760052
31	0xbb9f0666	-0.0048530577
32	0xbb1bf168	-0.0023795012
33	0xbd1abc2a	-0.037777103
34	0x3d182835	0.03714772
35	0x3ccb3a91	0.0248082
36	0x3a5c80a1	0.0008411501
37	0x3cf86207	0.03032018
38	0x3d14b492	0.036305018
39	0x3d4f55bc	0.050618872
40	0xbb7c0fce	-0.0038461569
41	0xbb0bff18	-0.0021361765
42	0xbd398af4	-0.04529853
43	0xbc828e78	-0.015937075
44	0x3d313c14	0.043270186
45	0xbcad9598	-0.021189496
46	0xbc946f97	-0.018119616
47	0x3cc717b4	0.024303295
48	0xbcf73bf2	-0.030179951
49	0xbcb0d455	-0.021585623
50	0xbc8d7334	-0.017266847
51	0x3dcaa664	0.09895018
52	0xbd73785b	-0.05944095
53	0x3d6cfd34	0.05785866
54	0x3da57e47	0.08080726
55	0x3c8b1615	0.016978303
56	0xbd531784	-0.051536098
57	0xbb2b9127	-0.0026179047
58	0xbc391f55	-0.011298974
59	0xbb780181	-0.0037842693
60	0xbc03fca2	-0.008055838
61	0xbd4ce662	-0.050024398
62	0x3dcc383c	0.09971663
63	0x3d879632	0.06620444
64	0x3d16113a	0.036637522
65	0x3c673f20	0.014114171
66	0xbd119d0b	-0.03555016
67	0xbc8138e0	-0.01577419
68	0x3d51fdd3	0.051267456
69	0xbbcab365	-0.0061859363
70	0xbd9989ed	-0.074970104
71	0xbd20208d	-0.039093543
72	0xbb27272f	-0.0025505533
73	0xb9aa56ec	-0.0003248969
74	0xbd15990f	-0.03652292
75	0x3b31e128	0.002714226
76	0x3c21ef9a	0.009883786
77	0xbd5651c1	-0.05232406
78	0xbd917105	-0.07101635
79	0x3d9fbb38	0.07799381
80	0x3d8be4d4	0.06830755
81	0xba8dd52b	-0.0010820975
82	0xbd6e98f4	-0.058251336
83	0x3aea18aa	0.0017860134
84	0xbcdf87bb	-0.027286401
85	0xbcf04485	-0.029329548
86	0xbd453f96	-0.048156343
87	0x3d17e044	0.03707911
88	0xbc512eea	-0.012767533
89	0xbd9a90de	-0.075471625
90	0x3cfa6d88	0.030569807
91	0x3d857a76	0.06517498
92	0x3d38e8fb	0.045144062
93	0xbd82962b	-0.063762985
94	0x3d121ab6	0.035670005
95	0x3d38c99a	0.045114137
96	0x3cd0d4d1	0.025492104
97	0xbd6d491d	-0.057931054
98	0x3a484856	0.00076401734
99	0xbb10a5c4	-0.002207146
100	0xbd3abbf9	-0.04558942
101	0x3d0cb021	0.034347657
102	0xbc7532f7	-0.014965764
103	0xbd335df2	-0.043790765
104	0x3c479966	0.012182569
105	0x3d335ae3	0.04378785
106	0x3d768509	0.060185466
107	0x3d0fcf6f	0.035109933
108	0xbcbd918d	-0.023140693
109	0x3d0c95bb	0.03432248
110	0x3ce13f73	0.027496075
111	0xbd80f6d3	-0.06297078
112	0xbd1c43f5	-0.038150746
113	0x38551303	5.0800863e-05
114	0x3d326d26	0.043561123
115	0x3cf264fb	0.029589167
116	0xbc00ce34	-0.007861663
117	0x3d7f2a44	0.062296167
118	0x3c029453	0.007969934
119	0x3d1db939	0.03850672
120	0xbd40ceea	-0.04707233
121	0xbcd0e9e2	-0.025502149
122	0xbb7fd879	-0.003903894
123	0x3aeab5b3	0.0017906934
124	0xbb20fe3a	-0.0024565593
125	0x3d133c90	0.03594643
126	0xbc063466	-0.008191204
127	0xba63cfe9	-0.0008690344
128	0xbc2d8eda	-0.0105931405
129	0xbd25ebab	-0.040507954
130	0x3d27d56c	0.04097502
131	0x3d519b98	0.051173776
132	0x3c58db00	0.013235807
133	0x3c04e4c6	0.008111184
134	0x3dc09c4a	0.0940481
135	0x3d4e8c34	0.050426677
136	0xbcac114a	-0.021004338
137	0x3d93391c	0.07188627
138	0xbd806268	-0.062687695
139	0xbd1a3e61	-0.037657145
140	0xbcaa1ec6	-0.020766627
141	0xbd7bcb45	-0.06147315
142	0xbc2e004e	-0.01062019
143	0x3ccfa366	0.02534647
144	0x3b658d73	0.0035026937
145	0x3d7f0dba	0.06226895
146	0x3d0840e6	0.033265017
147	0xbd0f124c	-0.03492956
148	0x3dc87110	0.0978719
149	0xbc9e37e0	-0.019313753
150	0x39a7324e	0.00031890202
151	0xbce02083	-0.027359253
152	0x3b59749a	0.0033181072
153	0x3c0c56dc	0.008565631
154	0xbc45d758	-0.012075268
155	0x39bba5c5	0.00035790927
156	0x3d15bc83	0.036556732
157	0x3d360f59	0.04444823
158	0xbaddd7bf	-0.0016925259
159	0xbb9a2466	-0.004704046
160	0xbcd01565	-0.025400827
161	0x3d74213f	0.05960202
162	0x3c0a8e0f	0.008456721
163	0x3d3c65b7	0.04599544
164	0x3daab122	0.08334567
165	0x3cc0e16f	0.023544995
166	0xbd8f36f3	-0.069929026
167	0x3ce82b58	0.02834098
168	0xbcd4c18e	-0.0259712
169	0xbc85a044	-0.016311772
170	0x3cddbc27	0.027067257
171	0x3b964143	0.0045854165
172	0x3b8d898f	0.004319377
173	0xbc0e8d0c	-0.00870062
174	0x3db5ba1a	0.08873387
175	0xbd49f3c7	-0.04930475
176	0xbd8c4ad3	-0.06850209
177	0xbd5e6503	-0.05429555
178	0x3d87690b	0.06611832
179	0x3d9559a8	0.07292491
180	0x3db56813	0.08857741
181	0x3d0652bb	0.03279374
182	0x3c632dd9	0.013865911
183	0xbd92a5ec	-0.07160553
184	0xbc8796a5	-0.016551325
185	0xbd52dcee	-0.051480226
186	0x3c869eb5	0.0164331
187	0x3d854bd1	0.065086015
188	0xbd1b9ca5	-0.037991185
189	0x3d8d48d6	0.06898658
190	0x3c0341f1	0.008011327
191	0x3ca44628	0.020052984
192	0xbc7bff12	-0.015380638
193	0x3cbd1f93	0.023086345
194	0x3d5f9da9	0.054593716
195	0x3da083cd	0.07837639
196	0x3c970613	0.018435514
197	0x3cc44663	0.023959344
198	0xbc8d7ac4	-0.017270453
199	0xbd767db4	-0.060178474
200	0xbc9c1882	-0.019054655
201	0xbc3ac4be	-0.011399446
202	0xbb892af7	-0.00418603
203	0x3ba336ea	0.0049809115
204	0x3ca8d361	0.020608606
205	0xbcdb5532	-0.026774023
206	0xbd3e73c2	-0.046497114
207	0x3d838bf7	0.064231806
208	0x3d951972	0.07280244
209	0x3d2cec50	0.042217553
210	0x3c867cf1	0.016416999
211	0xbd364500	-0.044499397
212	0xbc9e2032	-0.019302461
213	0x3bcd382d	0.0062628
214	0xbd22f73e	-0.03978657
215	0x3d54a8d2	0.051918812
216	0x3d24973c	0.04018329
217	0x3d0ddd82	0.034635074
218	0x3b13667a	0.00224915
219	0x3d425d00	0.047451973
220	0x3d028418	0.031864256
221	0xbd3db451	-0.04631454
222	0x3d42d65e	0.047567718
223	0xb9cf5c9e	-0.00039551122
224	0xba5ecc22	-0.0008499046
225	0xbd932116	-0.07184045
226	0x3d98a856	0.074539825
227	0x3c3c76ea	0.011502961
228	0xbd346213	-0.044038843
229	0xbcbc37b0	-0.022975773
230	0x3cccbf4f	0.024993567
231	0x3d79e796	0.061011873
232	0x3c841885	0.016124973
233	0xbc2db436	-0.010602048
234	0x3c7c015c	0.0153811835
235	0x3c87b415	0.016565362
236	0xbd62a6a1	-0.05533469
237	0x3c2796b9	0.010228806
238	0x3ce9d032	0.028541658
239	0xbbbd5c9b	-0.0057788617
240	0xbdd55e0a	-0.10418327
241	0xbbabdc16	-0.005244742
242	0x3c12fcea	0.008971432
243	0x3d76c827	0.060249474
244	0xbd2c7f1d	-0.042113412
245	0x3d3592a5	0.044329304
246	0xbc5fc7e9	-0.013658502
247	0x3c6e71a4	0.014553461
248	0xbc5d9209	-0.013523587
249	0xbd31a114	-0.043366507
250	0x3ca64500	0.020296574
251	0x3d23f65e	0.040029876
252	0x3c62374b	0.013807128
253	0x3b86b27c	0.0041106325
254	0x3c53064a	0.012879917
255	0xbbd5af69	-0.0065211547

fc1.bias f4 [50]
0	0xbc867677	-0.01641391
1	0x3d1621b4	0.036653236
2	0x3d3eb7e0	0.046562076
3	0x3a9caee2	0.0011953975
4	0xbca61320	-0.020272791
5	0xbcd847e3	-0.026401466
6	0x3c2e2da3	0.010630998
7	0x3ba6582d	0.0050764293
8	0x3cd39d29	0.025831776
9	0x3d21c739	0.039496634
10	0xbbfb503b	-0.0076694763
11	0xbba6072f	-0.0050667743
12	0xbc40ba9f	-0.011763244
13	0xbd1b7f33	-0.037963104
14	0x3d9033b4	0.070411116
15	0x3cdf0647	0.027224673
16	0x3d86d709	0.065839835
17	0xbd3c811a	-0.04602156
18	0xbac2714c	-0.001483479
19	0x3d186fe7	0.037216093
20	0xbc98fa0b	-0.018673917
21	0x3d7bd14c	0.061478898
22	0x3d8e322e	0.06943165
23	0xbb7746d3	-0.0037731424
24	0x3cfb44fa	0.030672539
25	0x3c4d162e	0.012517495
26	0xbccd7070	-0.025078028
27	0xbc07da3d	-0.008291778
28	0x3b67e2aa	0.0035382905
29	0x3d450a02	0.048105247
30	0x3cb8a48e	0.022539403
31	0xbd60c710	-0.05487734
32	0xbd0addf5	-0.03390308
33	0x3d829c63	0.06377485
34	0xbc60dc7b	-0.013724442
35	0xbd376c84	-0.044781223
36	0x3d6455de	0.05574595
37	0x3b335f37	0.0027369985
38	0xbc9254b7	-0.01786266
39	0x3d72f6b3	0.059317302
40	0x3d75f5ee	0.06004899
41	0xbd5cf935	-0.0539486
42	0xbc15add7	-0.009135685
43	0xb90aacce	-0.0001322508
44	0xbd40a56e	-0.047032766
45	0xbd413a31	-0.047174636
46	0x3d26b7aa	0.0407025
47	0x3d15e14a	0.036591806
48	0x3d738b81	0.059459213
49	0x3c56d4e8	0.013112284

fc2.weight f4 [2, 50]
0	0x3da70192	0.081545964
1	0x3dc651c9	0.09683568
2	0x3cc12299	0.023576068
3	0x3d06fbe9	0.032955084
4	0xbd5d0c85	-0.053967018
5	0x3d1fee27	0.03904548
6	0xbc27a9c0	-0.010233343
7	0x3c76549b	0.01503482
8	0x3e07b085	0.1325093
9	0xbdbdabd5	-0.0926129
10	0x3a204bbc	0.0006114801
11	0x3d8ecf6f	0.069731586
12	0x3d0224d7	0.031773414
13	0x3d75bb23	0.05999292
14	0x3da123fb	0.07868191
15	0x3df72f75	0.120695986
16	0xbdc059c8	-0.093921244
17	0x3c7ce77c	0.01543605
18	0x3debef2d	0.115202285
19	0x3ddc6c03	0.10762789
20	0x3e1078e4	0.14108616
21	0x3df64f5a	0.12026854
22	0x3dbe8920	0.09303498
23	0xbd3bdc2a	-0.04586426
24	0xbccee51b	-0.02525573
25	0x3dd201f5	0.102542795
26	0x3cdb1e77	0.026747925
27	0xbd9c2342	-0.076239124
28	0x3db2c46a	0.08728869
29	0xbd237ba9	-0.039912853
30	0xbc832de2	-0.01601309
31	0xbd181c66	-0.037136458
32	0x3a9ec8d8	0.00121143
33	0xbc88304d	-0.016624594
34	0x3e0a435c	0.13502258
35	0x3c8ab679	0.016932713
36	0x3d4301e5	0.04760923
37	0xbd91dbb4	-0.07121983
38	0x3de20702	0.11036493
39	0x3d7bc75b	0.061469417
40	0x3de70a03	0.112812065
41	0x3d42b677	0.047537293
42	0xbd8d7bf3	-0.06908407
43	0x3db529b8	0.08845848
44	0x3c82013e	0.015869733
45	0xbe0ea595	-0.13930352
46	0x3d115aa5	0.035486836
47	0xbe05990a	-0.13046661
48	0xbd1dc615	-0.038518984
49	0x3d45e0ca	0.04831008
50	0xbe1aeb4d	-0.15128823
51	0x3d8558e4	0.06511095
52	0xbdd57235	-0.10422174
53	0x3ce28b7b	0.0276544
54	0x3e134dcb	0.14385144
55	0x3dc23415	0.0948259
56	0xbe0eaf97	-0.1393417
57	0xbd9431f8	-0.07236093
58	0xbd6ca8f4	-0.057778314
59	0xbc36150b	-0.0111134155
60	0x3d479de9	0.04873458
61	0xbe0010a8	-0.12506354
62	0x3bf60651	0.007508077
63	0x3d29a59b	0.0414177
64	0x3dd0704d	0.1017767
65	0xbdbbb003	-0.09164431
66	0x3dd8ea2c	0.1059154
67	0xbc89a8af	-0.016804067
68	0x3b47901a	0.0030450881
69	0x3ca072e8	0.019586042
70	0x3d81729b	0.063206874
71	0x3c474449	0.012162277
72	0xbd8f59d1	-0.06999553
73	0x3d462878	0.048378438
74	0x3e28e99a	0.16495362
75	0x3d8139a0	0.06309819
76	0xbdc8c9db	-0.09804126
77	0x3de0d2a0	0.109776735
78	0x3ca9d5af	0.020731775
79	0x3df72f78	0.12069601
80	0xbc9229d5	-0.017842213
81	0x3e0d97ea	0.13827482
82	0xbd67d026	-0.05659499
83	0x3da05196	0.07828061
84	0xbde7f0ff	-0.11325263
85	0xbdd21717	-0.1025831
86	0x3db6566f	0.08903205
87	0x3da60d3a	0.081079915
88	0xbded89a6	-0.1159852
89	0x3d34009b	0.04394589
90	0xbbb9a5e2	-0.0056655267
91	0xbdf997eb	-0.12187179
92	0xbd2b4673	-0.041815232
93	0x3dfba15d	0.12286637
94	0xbe02f029	-0.12786926
95	0xbd9eb30a	-0.07748993
96	0x3d51900a	0.051162757
97	0x3d265667	0.040609743
98	0x3d81cc54	0.063378006
99	0x3c915e07	0.017745031

fc2.bias f4 [2]
0	0xbc1389e4	-0.009005044
1	0xbd9e68ee	-0.077348575
